…
                "<_io.TextIOWrapper name='/root/spinningup/data/ppo_lstm_1106/ppo_lstm_1106_s0/progress.txt' mode='w' encoding='UTF-8'>":	{
                    "mode":	"w"
                }
            }
        }
    },
    "logger_kwargs":	{
        "exp_name":	"ppo_lstm_1106",
        "output_dir":	"/root/spinningup/data/ppo_lstm_1106/ppo_lstm_1106_s0"
    },
    "max_ep_len":	1000,
    "pi_lr":	0.001,
    "pretrain":	null,
    "save_freq":	10,
    "seed":	0,
    "steps_per_epoch":	4000,
    "target_kl":	0.01,
    "train_pi_iters":	80,
    "train_v_iters":	80,
    "vf_lr":	0.001
}
cnn_model(
  (conv1): Conv2d(4, 32, kernel_size=(3, 3), stride=(2, 2), padding=(1, 1))
  (conv2): Conv2d(32, 32, kernel_size=(3, 3), stride=(2, 2), padding=(1, 1))
  (conv3): Conv2d(32, 32, kernel_size=(3, 3), stride=(2, 2), padding=(1, 1))
  (conv4): Conv2d(32, 32, kernel_size=(3, 3), stride=(2, 2), padding=(1, 1))
  (lstm): LSTMCell(1152, 512)
  (fc_out): Linear(in_features=512, out_features=12, bias=True)
)
cnn_model(
  (conv1): Conv2d(4, 32, kernel_size=(3, 3), stride=(2, 2), padding=(1, 1))
  (conv2): Conv2d(32, 32, kernel_size=(3, 3), stride=(2, 2), padding=(1, 1))
  (conv3): Conv2d(32, 32, kernel_size=(3, 3), stride=(2, 2), padding=(1, 1))
  (conv4): Conv2d(32, 32, kernel_size=(3, 3), stride=(2, 2), padding=(1, 1))
  (lstm): LSTMCell(1152, 512)
  (fc_out): Linear(in_features=512, out_features=1, bias=True)
)
[32;1m
Number of parameters: 	 pi: 3447052, 	 v: 3441409
[0m
(4000, 512)
epret : 9.599999999999998
epret : -1.6999999999999993
epret : -4.5000000000000036
epret : 10.449999999999942
Warning: trajectory cut off by epoch at 369 steps.
epoch_end
[32;1mEarly stopping at step 2 due to reaching max kl.[0m
---------------------------------------
|             Epoch |               0 |
…
