…
            "output_dir":	"/root/lele/spinningup/spinningup/data/ppo/ppo_s0",
            "output_file":	{
                "<_io.TextIOWrapper name='/root/lele/spinningup/spinningup/data/ppo/ppo_s0/progress.txt' mode='w' encoding='UTF-8'>":	{
                    "mode":	"w"
                }
            }
        }
    },
    "logger_kwargs":	{
        "exp_name":	"ppo",
        "output_dir":	"/root/lele/spinningup/spinningup/data/ppo/ppo_s0"
    },
    "max_ep_len":	1000,
    "pi_lr":	0.001,
    "save_freq":	10,
    "seed":	0,
    "steps_per_epoch":	4000,
    "target_kl":	0.01,
    "train_pi_iters":	80,
    "train_v_iters":	80,
    "vf_lr":	0.001
}
cnn_model(
  (conv1): Conv2d(4, 32, kernel_size=(3, 3), stride=(2, 2), padding=(1, 1))
  (conv2): Conv2d(32, 32, kernel_size=(3, 3), stride=(2, 2), padding=(1, 1))
  (conv3): Conv2d(32, 32, kernel_size=(3, 3), stride=(2, 2), padding=(1, 1))
  (conv4): Conv2d(32, 32, kernel_size=(3, 3), stride=(2, 2), padding=(1, 1))
  (lstm): Linear(in_features=1152, out_features=512, bias=True)
  (fc_out): Linear(in_features=512, out_features=12, bias=True)
)
cnn_model(
  (conv1): Conv2d(4, 32, kernel_size=(3, 3), stride=(2, 2), padding=(1, 1))
  (conv2): Conv2d(32, 32, kernel_size=(3, 3), stride=(2, 2), padding=(1, 1))
  (conv3): Conv2d(32, 32, kernel_size=(3, 3), stride=(2, 2), padding=(1, 1))
  (conv4): Conv2d(32, 32, kernel_size=(3, 3), stride=(2, 2), padding=(1, 1))
  (lstm): Linear(in_features=1152, out_features=512, bias=True)
  (fc_out): Linear(in_features=512, out_features=1, bias=True)
)
[32;1m
Number of parameters: 	 pi: 625420, 	 v: 619777
[0m
timeout
timeout
epret : -4.6
timeout
epret : -3.3999999999999986
epret : -2.8999999999999977
epret : -3.9
Warning: trajectory cut off by epoch at 652 steps.
timeout
[32;1mEarly stopping at step 2 due to reaching max kl.[0m
---------------------------------------
|             Epoch |               0 |
…
